experiments/ddk/models/speechnn_ddk.pth (torch, 15313 bytes, 6 tensors)

net.0.weight f4 [64, 13]
-0.055469543 0.14004843 0.2965921 -0.09006639 -0.2255457 -0.12565568 -0.12469228 -0.1852373
0.21131295 -0.049149655 0.2086652 -0.09644361 0.17466748 -0.3915517 -0.031540632 0.09104404
0.15363784 -0.066176295 -0.041343182 -0.20841949 0.14162369 -0.11479874 -0.039109513 0.25029087
-0.053265408 -0.15183853 -0.25657758 -0.24684809 -0.18860416 -0.23877577 -0.0321989 -0.053776395
0.019584011 0.030646348 -0.15356228 0.2406317 0.17113759 -0.20132227 0.069390945 -0.23074605
0.19097723 -0.19240786 0.29791388 0.22342122 0.16686264 -0.15153201 -0.05922311 0.16123275
0.021596512 0.13809186 -0.05007338 -0.20012738 0.0768297 0.16927052 0.3102115 -0.0027501516
0.05754052 0.19412193 0.37545082 -0.24318396 -0.21706516 -0.18551998 -0.12592998 0.1502488
-0.15120915 0.16156147 -0.110924914 -0.14926393 0.22583348 0.016466 0.056143712 0.26269346
-0.20148025 -0.029798362 0.122890055 0.2784908 0.21279737 -0.21041617 0.3326126 -0.27354163
0.077233806 -0.25975055 0.012419951 0.06058278 -0.16588861 0.029410113 -0.1933294 -0.03804582
-0.2261789 0.070908815 -0.09155097 -0.40086237 -0.03393695 -0.1326376 0.27964154 -0.053999685
-0.1906405 -0.06368932 -0.01990823 0.121484004 0.1898784 0.21386945 -0.16333184 -0.006855035
-0.19698644 -0.07357633 0.13479216 -0.34049118 0.18937707 -0.24515207 -0.25220343 -0.22992426
-0.07091833 0.22111978 0.2927787 0.03221061 0.108221516 -0.40242854 -0.06916 -0.07233855
-0.079485826 -0.018378612 -0.15448503 0.054639906 -0.020221869 0.19915017 0.26713994 0.27472487
0.16476677 -0.1749718 0.049461193 0.092556365 0.15656038 0.18542702 0.32249093 0.1388426
0.25173822 -0.1436726 -0.02598693 0.06847195 0.077499054 -0.32362652 0.13811374 0.045164045
-0.29207382 -0.052543666 0.078437604 -0.066867106 -0.055814896 0.0020290988 -0.271074 -0.10764603
0.215936 0.21897915 0.032656748 -0.18310079 0.31045204 -0.24113144 0.016390089 0.18544412
0.28505594 0.22331573 0.03249408 0.1521956 -0.26157773 -0.12129645 0.23497716 -0.050301667
-0.004484479 0.21189107 0.11852505 -0.02363466 0.215819 0.061576467 0.07769304 -0.17313907
-0.07971264 0.06103526 -0.1360899 0.114457555 0.26972622 -0.021417668 -0.25531825 0.21080105
-0.15074413 0.062430408 -0.108059324 0.0872292 0.031015966 -0.2754658 -0.004380628 0.09115939
0.041402996 -0.11513689 -0.099075615 0.22416371 -0.004491659 0.08704162 0.049552813 -0.11473792
0.29943684 -0.030826047 -0.22376919 0.05727347 0.19942242 0.06597817 0.2290268 0.33642882
0.34227553 -0.086456 -0.033150047 -0.22941263 -0.29287034 -0.18004018 -0.25145382 0.1430679
-0.07723533 0.040731534 -0.285856 0.2435532 0.09212653 0.2715371 -0.017489037 0.06903507
0.09345555 0.14057952 -0.1231305 -0.19215097 0.05743567 -0.21158645 0.021234974 0.29646286
0.03733505 0.16536358 -0.4978289 0.08476572 0.027390834 -0.15772763 0.085351355 0.017212078
-0.12526941 -0.003005724 -0.102191284 -0.14459653 0.13345896 0.08925671 -0.066706866 -0.206956
-0.25798398 0.32913995 0.2156439 0.15082364 -0.21426186 -0.23346296 0.117486164 0.11161057
00000000: 0834 63bd db68 0f3e ebda 973e ba74 b8bd
00000010: 74f5 66be e2ab 00be ab5e ffbd d9ae 3dbe
00000020: 6c62 583e 2651 49bd 55ac 553e 3a84 c5bd
00000030: 08dc 323e 7779 c8be c030 01bd 4c75 ba3d
00000040: 3d53 1d3e 7087 87bd 7857 29bd eb6b 55be
00000050: cd05 113e 9a1b ebbd 4c31 20bd 2026 803e
00000060: d42c 5abd 8f7b 1bbe 235e 83be bfc5 7cbe
00000070: 7321 41be a381 74be fee2 03bd a344 5cbd
00000080: a66e a03c 0d0e fb3c 6e3f 1dbe 2868 763e
00000090: b13e 2f3e 6d27 4ebe d71c 8e3d b148 6cbe
000000a0: 898f 433e 9106 45be 2b88 983e 88c8 643e
000000b0: 0ade 2a3e 352b 1bbe ef93 72bd 331a 253e
000000c0: 2beb b03c f467 0d3e bf19 4dbd 31ee 4cbe
000000d0: e458 9d3d 4055 2d3e 0bd4 9e3e e33b 34bb
000000e0: 9caf 6b3d e6c7 463e 173b c03e 3705 79be
000000f0: 5446 5ebe f3f8 3dbe caf3 00be d2da 193e
00000100: 92d6 1abe 5f70 253e 9a2c e3bd a5d8 18be
00000110: e440 673e b4e3 863c f3f6 653d c27f 863e
00000120: d750 4ebe b21b f4bc c8ad fb3d 5996 8e3e
00000130: 8ee7 593e 5677 57be 334c aa3e a60d 8cbe
00000140: c22c 9e3d 06fe 84be 0d7d 4b3c a625 783d
00000150: b4de 29be 7aed f03c 24f8 45be efd5 1bbd
00000160: 719b 67be a438 913d 137f bbbd d53d cdbe
00000170: 7901 0bbd 27d2 07be 2d2d 8f3e c62e 5dbd
00000180: 4337 43be 8c6f 82bd 9616 a3bc 9bcc f83d
00000190: 7c6f 423e 9800 5b3e 7640 27be 34a0 e0bb
000001a0: d0b6 49be 30af 96bd f506 0a3e dc54 aebe
000001b0: 10ec 413e 2509 7bbe cf20 81be 4471 6bbe
000001c0: a13d 91bd 396d 623e 17e7 953e 46ef 033d
000001d0: 3ea3 dd3d 1d0b cebe c2a3 8dbd 3c26 94bd
000001e0: 77c9 a2bd be8e 96bc 5331 1ebe 18ce 5f3d
000001f0: 55a8 a5bc 06ee 4b3e 91c6 883e bda8 8c3e
00000200: 9fb8 283e cf2b 33be d297 4a3d 318e bd3d
00000210: 5d51 203e 95e0 3d3e 881d a53e c12c 0e3e
00000220: d5e3 803e e91e 13be 8be2 d4bc 063b 8c3d
00000230: d3b7 9e3d 60b2 a5be b06d 0d3e effd 383d
00000240: b38a 95be 0738 57bd e5a3 a03d 9ff1 88bd
00000250: 299e 64bd a1fa 043b 36ca 8abe 8675 dcbd
00000260: 541e 5d3e 123c 603e 15c3 053d c67e 3bbe
00000270: 92f3 9e3e 29eb 76be 8244 863c 10e5 3d3e
00000280: daf2 913e e1ac 643e 8318 053d 2ad9 1b3e
00000290: 84ed 85be 466a f8bd da9d 703e 1f09 4ebd
000002a0: 89f2 92bb f9f9 583e 43bd f23d 799d c1bc
000002b0: a8ff 5c3e 9b37 7c3d 871d 9f3d 5e4b 31be
000002c0: 6140 a3bd 1c00 7a3d 275b 0bbe b968 ea3d
000002d0: 8e19 8a3e 1b74 afbc 13b9 82be 3bdc 573e
000002e0: ab5c 1abe 07b7 7f3d 354e ddbd 39a5 b23d
000002f0: 3215 fe3c da09 8dbe 5f8b 8fbb c6b1 ba3d
00000300: 3096 293d e4cc ebbd 28e8 cabd 2c8b 653e
00000310: c42e 93bb e042 b23d e4f7 4a3d b7fb eabd
00000320: c94f 993e e886 fcbc c023 65be 9697 6a3d
00000330: 6435 4c3e 901f 873d 0086 6a3e 6640 ac3e
00000340: bd3e af3e d80f b1bd 58c8 07bd 25eb 6abe
00000350: 1af3 95be 745c 38be 8ebe 80be 6480 123e
00000360: 8f2d 9ebd 1cd6 263d b85b 92be 0366 793e
00000370: d6ac bc3d e906 8b3e 2b45 8fbc 4262 8d3d
00000380: a065 bf3d 14f4 0f3e d82b fcbd 39c3 44be
00000390: aa41 6b3d 1eaa 58be f8f4 ad3c fbc9 973e
000003a0: a3ec 183d 1255 293e 6ee3 febe a699 ad3d
000003b0: be62 e03c 5a83 21be b1cc ae3d 5800 8d3c
000003c0: a046 00be aefb 44bb aa49 d1bd 1d11 14be
000003d0: 77a9 083e 39cc b63d 9c9d 88bd 46ec 53be
000003e0: 7a16 84be 0885 a83e c1d1 5c3e 8371 1a3e
000003f0: 7667 5bbe ea10 6fbe 969c f03d 1594 e43d

net.0.bias f4 [64]
0.13920647 -0.1212065 0.19078717 0.054688025 0.12233483 0.075643554 -0.08836077 0.15371834
0.084895715 -0.06700577 -0.14662047 -0.2556594 0.20293671 0.00036186783 -0.16215505 0.19141725
0.18161137 -0.054932028 -0.15368201 -0.17084007 0.010902138 0.097382315 -0.073891565 -0.1186262
0.03683024 0.16371123 0.10536791 -0.19552001 0.2554725 -0.17615406 -0.23479863 0.13258934
0.022266002 0.2805061 0.24030365 0.03925425 -0.1419011 0.07663748 0.0768544 0.17623283
-0.1666781 0.014378028 -0.13440077 0.12604617 0.062127817 0.10175667 -0.23369744 0.17733008
-0.12166514 0.1378441 -0.15875189 0.10824793 -0.19604523 0.14074393 -0.19897811 0.028414939
-0.2843826 -0.017517699 0.21401365 0.261394 -0.17124525 0.08097659 0.18852052 0.08584106
00000000: 248c 0e3e 1d3b f8bd b65d 433e 8d00 603d
00000010: af8a fa3d 02eb 9a3d 7ef6 b4bd 5768 1d3e
00000020: cedd ad3d 523a 89bd ad23 16be cae5 82be
00000030: a4ce 4f3e 14b9 bd39 f90b 26be e202 443e
00000040: 55f8 393e 6800 61bd d15e 1dbe b3f0 2ebe
00000050: e29e 323c 6170 c73d 7654 97bd 4bf2 f2bd
00000060: 4edb 163d eba3 273e 21cb d73d 6636 48be
00000070: 4bcd 823e bb61 34be 0d6f 70be 80c5 073e
00000080: 3167 b63c 7f9e 8f3e 2912 763e 10c9 203d
00000090: 864e 11be 1cf4 9c3d d765 9d3d 6176 343e
000000a0: aaad 2abe d291 6b3c 5ba0 09be 3f12 013e
000000b0: bd79 7e3d cd65 d03d 624e 6fbe 0496 353e
000000c0: 932b f9bd 0127 0d3e db8f 22be 17b1 dd3d
000000d0: 15c0 48be 2d1f 103e ebc0 4bbe 72c6 e83c
000000e0: 999a 91be 4781 8fbc 6526 5b3e 6fd5 853e
000000f0: ea5a 2fbe 0ed7 a53d 860b 413e 70cd af3d

net.3.weight f4 [32, 64]
-0.0615843 0.17880377 0.14435653 0.017850485 0.0769979 -0.066056296 0.03265621 0.21009368
0.018711798 0.002040405 -0.09315275 -0.12184151 -0.07358002 0.0058639436 0.08369836 0.026412264
0.055365134 0.08807906 0.04898375 0.0047756145 0.013255335 0.09196676 -0.08962626 -0.053891044
-0.094860554 0.06332749 0.10451762 -0.0057559153 -0.07931418 -0.08116665 0.0075989747 -0.034242064
0.039922476 0.017136965 -0.061507713 -0.088275634 -0.08650908 0.08384552 0.042656332 0.054140564
-0.088915855 0.16184823 -0.08999172 0.04512112 -0.071173996 -0.038699444 -0.02982397 0.04651055
0.18026707 -0.069598086 0.040176615 0.06716253 0.14096119 0.20436203 0.13502431 -0.040514015
0.14076184 -0.009855961 0.008631689 0.008509849 -0.10777031 -0.09830974 0.0023401221 0.060070507
-0.012275265 0.09071792 0.084567115 -0.12841374 0.14441589 -0.005691553 0.10609929 -0.1027372
-0.12783942 -0.07797794 0.029243369 0.067194805 0.109192334 0.055366464 -0.15428908 0.08716124
0.14779381 0.09312912 0.04613511 -0.087648995 -0.002988792 -0.15258256 0.035864964 0.058817234
0.0382308 -0.06905715 0.04865544 -0.11695085 -0.03105083 -0.06886904 0.059578847 -0.11895287
-0.1551111 -0.017805351 -0.059078366 0.07814838 0.030229969 -0.18907884 -0.03249684 -0.00292327
-0.045282353 -0.19172105 -0.24616438 -0.0013307567 -0.029624548 0.16543092 -0.13653372 -0.036816586
-0.0015748299 0.07082066 0.09371011 0.0027210973 0.010557917 -0.07501035 0.19718915 -0.092436016
-0.14535356 -0.0026200844 -0.03101794 -0.06869575 0.026092289 -0.12275757 -0.13909882 -0.048639536
-0.007173911 -0.17294912 -0.09280202 0.09615389 0.12475759 0.16574521 -0.21728146 0.053238083
-0.0021571242 0.010331726 0.06213919 -0.07563467 0.17508426 -0.06907749 -0.03654024 -0.0364677
-0.030630564 0.050691187 -0.10713024 -0.0009528557 0.07058102 -0.12944128 0.04970952 0.06279318
-0.037201006 0.02912361 0.1266396 0.18137133 -0.006429241 0.21848318 0.004130452 0.038184498
-0.012330396 -0.058817666 0.1691364 0.15984392 -0.043218065 -0.13589323 -0.18185984 0.11631738
0.0022310137 -0.035585534 0.058916017 -0.13834983 0.10802292 0.06217614 -0.00455308 0.08675433
0.05688879 -0.17929715 0.0056945463 0.061553556 -0.14178665 0.07056893 0.03973412 0.15983729
0.007692862 -0.034289535 -0.14566022 -0.10727887 0.07930098 -0.0061453497 0.0041379887 -0.057618342
-0.102908194 0.15546367 0.09769986 -0.023358403 0.042530738 -0.15852417 -0.096029274 0.16740432
-0.022365492 0.05667715 -0.035086166 -0.011369079 0.019628024 0.020505093 0.0030811266 -0.044093452
-0.19210139 0.003948816 0.2014119 -0.05058539 -0.012779495 0.03874085 -0.11409124 -0.06958486
0.1320175 0.013549927 0.08278988 -0.0043864897 0.018561812 -0.09313135 0.032888167 -0.080352135
0.13072118 -0.06722036 -0.03843736 0.0493694 -0.07572108 -0.02347347 0.07958975 -0.02576001
0.035666034 0.047445897 0.03831044 0.04148509 0.097998746 0.030613918 -0.04070105 0.03401564
0.06862931 -0.04025314 -0.05915139 -0.040143453 -0.0031923703 -0.02229651 0.11115417 -0.037461348
-0.00019261078 0.15737703 0.13887553 -0.01580178 -0.18702015 0.08445815 0.15776442 0.01574898
00000000: d23f 7cbd 5618 373e 33d2 133e 2e3b 923c
00000010: 13b1 9d3d 8648 87bd 85c2 053d cc22 573e
00000020: 7c49 993c 51b8 053b dec6 bebd 0b88 f9bd
00000030: 1fb1 96bd 5326 c03b 0c6a ab3d 885e d83c
00000040: 8dc6 623d cb62 b43d 2fa3 483d c27c 9c3b
00000050: e82c 593c 1259 bc3d f98d b7bd dbbc 5cbd
00000060: 4046 c2bd d8b1 813d 550d d63d 1e9c bcbb
00000070: 796f a2bd b33a a6bd d200 f93b 6841 0cbd
00000080: c085 233d d262 8c3c 83ef 7bbd dbc9 b4bd
00000090: ac2b b1bd 33b7 ab3d 68b8 2e3d 7fc2 5d3d
000000a0: 8419 b6bd 8bbb 253e 944d b8bd ecd0 383d
000000b0: acc3 91bd 4f83 1ebd 6651 f4bc d981 3e3d
000000c0: ee97 383e 7189 8ebd 3c90 243d 828c 893d
000000d0: 2158 103e 4844 513e d043 0a3e 06f2 25bd
000000e0: df23 103e e67a 21bc ed6b 0d3c e56c 0b3c
000000f0: aeb6 dcbd 9e56 c9bd bc5c 193b 7e0c 763d
00000100: 311e 49bc 51ca b93d 8631 ad3d e47e 03be
00000110: c2e1 133e 3580 babb 964a d93d e267 d2bd
00000120: 56e8 02be e6b2 9fbd ca8f ef3c 6e9d 893d
00000130: 3ba0 df3d f2c7 623d f5fd 1dbe 9881 b23d
00000140: 4357 173e 7bba be3d 2bf8 3c3d 5181 b3bd
00000150: 9cdf 43bb 9a3e 1cbe 24e7 123d 57ea 703d
00000160: e697 1c3d d66d 8dbd ed4a 473d ed83 efbd
00000170: 4f5e febc 360b 8dbd f308 743d 909d f3bd
00000180: 72d5 1ebe 87dc 91bc 28fc 71bd 420c a03d
00000190: d7a4 f73c e29d 41be 681b 05bd 5594 3fbb
000001a0: fd79 39bd 8652 44be 8412 7cbe c96c aeba
000001b0: 2eaf f2bc b966 293e 7fcf 0bbe fdcc 16bd
000001c0: 866a ceba 6c0a 913d 16eb bf3d 7054 323b
000001d0: 1dfb 2c3c 079f 99bd f4eb 493e 184f bdbd
000001e0: 90d7 14be b9b5 2bbb 5619 febc 5bb0 8cbd
000001f0: 7fbf d53c 5268 fbbd ec6f 0ebe 403a 47bd
00000200: 2113 ebbb 9319 31be fc0e bebd 55ec c43d
00000210: e880 ff3d 1db9 293e 087f 5ebe 2d10 5a3d
00000220: 8a5e 0dbb 6646 293c aa85 7e3d 5ae6 9abd
00000230: 4a49 333e 8078 8dbd 38ab 15bd 285f 15bd
00000240: f3ec fabc 90a1 4f3d 1967 dbbd 10c9 79ba
00000250: c88c 903d 418c 04be 369c 4b3d b699 803d
00000260: 1560 18bd a394 ee3c d0ad 013e 68b9 393e
00000270: 62ac d2bb 0eba 5f3e be58 873b 5967 1c3d
00000280: 6e05 4abc cbea 70bd 1832 2d3e 20ae 233e
00000290: 6d05 31bd 9827 0bbe 7739 3abe ce37 ee3d
000002a0: 3336 123b 23c2 11bd ec51 713d 94ab 0dbe
000002b0: 1f3b dd3d 68ac 7e3d 0132 95bb 41ac b13d
000002c0: 3804 693d ac99 37be 5199 ba3b 951f 7c3d
000002d0: 8530 11be 7186 903d 3fc0 223d 63ac 233e
000002e0: 6714 fc3b 2f73 0cbd f427 15be 06b5 dbbd
000002f0: 8d68 a23d ee5e c9bb f797 873b 3601 6cbd
00000300: 88c1 d2bd de31 1f3e dd16 c83d 1f5a bfbc
00000310: b634 2e3d 2954 22be ffaa c4bd 0a6c 2b3e
00000320: d637 b7bc 4d26 683d 83b6 0fbd 6045 3abc
00000330: f3ca a03c 4cfa a73c baec 493b 569b 34bd
00000340: 3ab6 44be 1265 813b ec3e 4e3e a032 4fbd
00000350: 1661 51bc baae 1e3d aba8 e9bd 8282 8ebd
00000360: 982f 073e 8300 5e3c be8d a93d 8bbc 8fbb
00000370: f10e 983c a6bb bebd beb5 063d a98f a4bd
00000380: c6db 053e d4aa 89bd 7e70 1dbd 9137 4a3d
00000390: a713 9bbd 6f4b c0bc f3ff a23d a806 d3bc
000003a0: 8c16 123d a156 423d 68eb 1c3d 45ec 293d
000003b0: 91b3 c83d 0aca fa3c 25b6 26bd fc53 0b3d
000003c0: 868d 8c3d 7ae0 24bd ba48 72bd 766d 24bd
000003d0: 1637 51bb 2ca7 b6bc cca4 e33d 1271 19bd
000003e0: 90f7 49b9 7227 213e 6335 0e3e bc72 81bc
000003f0: 3682 3fbe 65f8 ac3d ff8c 213e 0104 813c

net.3.bias f4 [32]
0.10276285 0.12823975 -0.063577116 0.102488376 0.10555911 0.15583645 -0.10313914 -0.03534006
-0.06306269 -0.06346729 -0.079315424 -0.024584759 0.028689735 0.05944977 -0.08553767 -0.032215506
0.10568965 -0.011279021 0.1354575 0.12943165 0.0025758373 0.108306326 -0.040777344 -0.026329488
0.06233764 0.073059075 0.02902751 0.07474775 0.029265588 0.1227366 0.096606255 0.056224857
00000000: 5475 d23d 4851 033e b834 82bd 6de5 d13d
00000010: 602f d83d 9793 1f3e 9d3a d3bd bdc0 10bd
00000020: 0327 81bd 23fb 81bd 2070 a2bd fa65 c9bc
00000030: bc06 eb3c 9a81 733d 602e afbd 68f4 03bd
00000040: d173 d83d a5cb 38bc 5fb5 0a3e bb89 043e
00000050: 61cf 283b b5cf dd3d 2506 27bd f0b0 d7bc
00000060: c155 7f3d ff9f 953d 1acb ed3c 5915 993d
00000070: 63be ef3c 545d fb3d 80d9 c53d 094c 663d

net.6.weight f4 [2, 32]
0.053981613 0.15720356 -0.15415236 0.05697092 0.17045836 -0.08871352 -0.17315896 0.11780521
-0.20856257 0.13017778 0.23070003 -0.110897616 -0.25822383 -0.030854013 -0.14165308 0.27101094
0.16715582 -0.2004284 0.025402859 -0.21419984 0.016795143 -0.21186681 0.18155424 0.19584367
0.076161705 0.112281784 -0.2413795 -0.047091033 -0.14337951 -0.24624108 -0.13371634 -0.18367968
-0.11848213 -0.19670846 0.17208299 -0.12531374 -0.09406511 0.2721502 -0.07493084 -0.15840791
0.26263455 -0.24880588 0.025245516 0.034796122 0.26923263 0.21547577 0.050968677 -0.10137469
-0.2088479 0.27696547 -0.21390098 0.15095761 -0.23501389 0.11971268 0.026093638 -0.008326913
-0.17478733 0.00020797164 0.21607861 0.17413297 0.10868523 0.2929061 0.12891938 0.027706916
00000000: d31b 5d3d f8f9 203e 1eda 1dbe 575a 693d
00000010: a38c 2e3e 6faf b5bd 9550 31be dc43 f13d
00000020: 6d91 55be 534d 053e a13c 6c3e 4a1e e3bd
00000030: ea35 84be 8ec1 fcbc 810d 11be f2c1 8a3e
00000040: e52a 2b3e 1a3d 4dbe a819 d03c 3457 5bbe
00000050: f895 893c 9df3 58be 5be9 393e 3e8b 483e
00000060: abfa 9b3d fef3 e53d 302c 77be 87e2 40bd
00000070: 14d2 12be 9f26 7cbe f0ec 08be 8716 3cbe
00000080: c2a6 f2bd f16d 49be 8636 303e 3f52 00be
00000090: 35a5 c0bd 4557 8b3e 5775 99bd af35 22be
000000a0: 0978 863e f8c6 7ebe afcf ce3c 6186 0e3d
000000b0: dcd8 893e aea5 5c3e 88c4 503d 899d cfbd
000000c0: 39dc 55be 6bce 8d3e dc08 5bbe a294 1a3e
000000d0: 7ba7 70be ec2b f53d 53c2 d53c 9b6d 08bc
000000e0: 73fb 32be f612 5a39 b643 5d3e ea4f 323e
000000f0: 5d96 de3d caf7 953e 7103 043e 9df9 e23c

net.6.bias f4 [2]
-0.14992006 0.0041503017
00000000: a584 19be 41ff 873b
