experiments/vowels/models/speechnn_vowels.pth (torch, 15349 bytes, 6 tensors)

net.0.weight f4 [64, 13]
0.23223418 0.27628776 -0.085839994 0.008272595 0.30472767 0.15959406 0.12380187 -0.10401192
0.33278888 -0.19730516 0.09714379 0.07132166 -0.24293712 0.16010657 -0.12039359 0.13261424
-0.101056784 0.20025094 0.15453608 0.25103968 -0.33153245 0.11584806 -0.095099665 0.19490491
0.041178096 -0.013720486 -0.33796453 -0.09230315 -0.34457192 0.25488403 -0.25800097 -0.03476906
0.10930926 0.12424582 0.15056978 0.10211669 0.10090853 0.2056273 0.22466448 0.085086994
-0.2194373 0.13059899 -0.24184896 0.09535387 -0.25779933 0.055593345 -0.04832274 -0.11589708
0.27284777 0.22280042 0.24733914 0.06705323 0.27796018 0.23136604 0.44126862 0.17494893
0.23490515 -0.048991557 -0.04092986 -0.19300695 -0.05080081 0.25716937 0.2616764 -0.00042483723
0.0025390456 0.20026417 -0.026564004 0.09408203 0.101555824 -0.29056907 0.15057954 0.27179843
-0.1282847 -0.10556497 0.26589873 0.29194877 -0.010587649 0.22507691 -0.03847206 0.22586013
0.26161546 -0.09734345 0.16732636 0.1998077 0.0497688 0.11652058 -0.26057997 0.06255845
0.231259 -0.06393618 -0.13768174 0.4439751 0.18560804 -0.15865609 -0.27671483 -0.059133988
-0.12417466 -0.17077097 -0.2728274 0.10431949 0.08128127 0.022180116 0.2756187 -0.32843414
-0.09107326 -0.056463085 0.17126015 -0.11441855 0.12483333 0.23051012 -0.09212626 0.3805134
-0.09957079 -0.16018249 -0.080198504 -0.12603134 0.2418603 -0.0028784839 0.052021094 0.21708187
-0.08574753 0.3362742 0.33448902 -0.014043761 0.15633133 0.029126113 -0.25183368 -0.004537863
0.09809499 0.21094169 -0.19818573 0.25371554 -0.24619126 0.11802514 0.23482749 -0.05699155
-0.102991864 -0.0012114291 -0.0074990937 0.02554966 0.2668075 0.20056139 -0.30729 -0.0846559
0.06124108 -0.029513605 0.09094053 0.010539811 0.2429089 -0.21644595 0.3622515 -0.2968299
0.011875023 -0.2755989 -0.027418902 0.08873614 -0.17127562 -0.036845308 -0.29836324 -0.33902693
-0.14717415 -0.05535409 -0.06651625 -0.13460113 0.009697261 0.017354164 0.21891806 -0.14093883
0.1631477 -0.21709119 0.23239009 -0.0027093957 -0.08594538 -0.38440287 -0.21905641 -0.20831582
-0.048905127 0.23088895 0.043807283 -0.074064955 -0.19897 -0.11776613 -0.23019592 0.08903695
0.22790974 -0.22319935 0.17789447 -0.12206097 0.010201846 0.11154299 -0.2783808 -0.17408456
0.022524523 -0.17866081 -0.13637619 0.44398358 0.09222439 -0.2892384 -0.42415082 -0.17844887
-0.22940475 0.09466842 0.047466733 -0.2691844 -0.05445412 -0.18486094 -0.22728789 0.05035525
-0.5530789 -0.068905696 -0.2716497 -0.08887983 0.10811526 0.0041043987 -0.058424868 0.15473513
-0.07412094 0.13664728 0.045532618 0.19293977 0.014190443 0.021111408 0.22188799 0.16005194
0.116720505 0.14977227 0.11580942 0.12661175 -0.32293323 0.23092528 0.007537305 0.038975324
0.18128382 -0.10667573 -0.2661837 -0.26499438 -0.29044396 0.26531023 0.15637983 -0.14708407
-0.17587413 -0.17244841 -0.15911967 -0.17281353 -0.16898634 0.1514124 0.0068766684 0.039752435
0.23857583 -0.26703227 -0.30174813 0.020473009 0.072020635 0.051807348 0.20884019 0.023473896
00000000: ccce 6d3e 9775 8d3e e1cc afbd c789 073c
00000010: 4405 9c3e a06c 233e d68b fd3d 3404 d5bd
00000020: 4e63 aa3e 5d0a 4abe 53f3 c63d 1711 923d
00000030: 82c4 78be faf2 233e ea90 f6bd 07cc 073e
00000040: dcf6 cebd 950e 4d3e b53e 1e3e 4688 803e
00000050: 9fbe a9be bf41 ed3d 9dc3 c2bd 2795 473e
00000060: 5daa 283d e4cb 60bc b009 adbe 6f09 bdbd
00000070: bb6b b0be 2980 823e b418 84be 006a 0ebd
00000080: 89dd df3d 9874 fe3d f72e 1a3e 8e22 d13d
00000090: 22a9 ce3d f78f 523e 720e 663e 1742 ae3d
000000a0: 2cb4 60be bebb 053e 41a7 77be e448 c33d
000000b0: 46fe 83be d9b5 633d 11ee 45bd 735b edbd
000000c0: b4b2 8b3e cb25 643e 7946 7d3e 3453 893d
000000d0: cc50 8e3e 38eb 6c3e f6ed e13e d025 333e
000000e0: fa8a 703e 5fab 48bd 12a6 27bd 9da3 45be
000000f0: 8314 50bd b4ab 833e 73fa 853e b0bc deb9
00000100: 1e66 263b 0d12 4d3e c19c d9bc 14ae c03d
00000110: 80fc cf3d 78c5 94be 8631 1a3e 2a29 8b3e
00000120: 105d 03be 7232 d8bd e123 883e 4f7a 953e
00000130: d277 2dbc 907a 663e e194 1dbd e147 673e
00000140: 76f2 853e 015c c7bd 9a57 2b3e 649a 4c3e
00000150: 5fda 4b3d 58a2 ee3d bd6a 85be a51e 803d
00000160: 29cf 6c3e f9f0 82bd 71fc 0cbe b450 e33e
00000170: 0910 3e3e be76 22be 91ad 8dbe 7b36 72bd
00000180: 494f febd 96de 2ebe 08b0 8bbe 75a5 d53d
00000190: cb76 a63d 13b3 b53c e51d 8d3e 8528 a8be
000001a0: 9e84 babd d645 67bd d25e 2f3e 4654 eabd
000001b0: 9ea8 ff3d d80a 6c3e b1ac bcbd a7d2 c23e
000001c0: c5eb cbbd e106 24be 1d3f a4bd 5c0e 01be
000001d0: 3aaa 773e f2a4 3cbb 1214 553d b64a 5e3e
000001e0: 679c afbd 222c ac3e 2542 ab3e ce17 66bc
000001f0: 5215 203e e399 ee3c 58f0 80be 5bb2 94bb
00000200: 07e6 c83d 1901 583e 33f1 4abe 01e7 813e
00000210: 9019 7cbe 2ab7 f13d 9e76 703e f96f 69bd
00000220: 66ed d2bd d1c8 9eba f5ba f5bb 854d d13c
00000230: fe9a 883e f75f 4d3e 1d55 9dbe 1360 adbd
00000240: edd7 7a3d 84c6 f1bc 073f ba3d 2caf 2c3c
00000250: 1cbd 783e 02a4 5dbe 0779 b93e 17fa 97be
00000260: 758f 423c 4d1b 8dbe 9b9d e0bc 4bbb b53d
00000270: e062 2fbe 1beb 16bd 11c3 98be f094 adbe
00000280: d2b4 16be f8ba 62bd ac39 88bd e1d4 09be
00000290: 43e1 1e3c 522a 8e3c 0e2c 603e 4552 10be
000002a0: 3110 273e 274d 5ebe abf7 6d3e 1e90 31bb
000002b0: 2204 b0bd 74d0 c4be 5350 60be be50 55be
000002c0: be50 48bd 276e 6c3e 446f 333d 5eaf 97bd
000002d0: cbbe 4bbe 5e2f f1bd 7bb8 6bbe 0159 b63d
000002e0: 2c61 693e 5f8e 64be f829 363e 1afb f9bd
000002f0: a525 273c a770 e43d ee87 8ebe 3943 32be
00000300: 5985 b83c dcf2 36be 33a6 0bbe d151 e33e
00000310: 24e0 bc3d 0e17 94be 4c2a d9be 4dbb 36be
00000320: 14e9 6abe 84e1 c13d 7a6c 423d 8ad2 89be
00000330: 490b 5fbd 304c 3dbe 28be 68be 4e41 4e3d
00000340: 9496 0dbf 6e1e 8dbd ab15 8bbe a106 b6bd
00000350: 896b dd3d 317e 863b ea4e 6fbd e372 1e3e
00000360: b8cc 97bd 44ed 0b3e 6980 3a3d 0192 453e
00000370: 087f 683c d5f1 ac3c 9b36 633e a8e4 233e
00000380: 290b ef3d e75d 193e 7d2d ed3d 83a6 013e
00000390: 8157 a5be ad77 6c3e 7ffb f63b 97a4 1f3d
000003a0: 77a2 393e ce78 dabd 3b49 88be 58ad 87be
000003b0: 12b5 94be bed6 873e 0922 203e 359d 16be
000003c0: 5918 34be 5196 30be 44f0 22be 08f6 30be
000003d0: c10a 2dbe da0b 1b3e ad55 e13b 73d3 223d
000003e0: 394d 743e 74b8 88be bb7e 9abe 03b7 a73c
000003f0: 8e7f 933d f133 543d 34da 553e 544c c03c

net.0.bias f4 [64]
0.07773535 -0.13540453 -0.06714446 0.026488319 0.262927 -0.20214199 0.14177577 -0.10318855
-0.18852505 0.23353633 0.040592205 0.18707706 0.1169885 -0.16700716 -0.105726816 -0.08549091
-0.29394922 -0.14643367 -0.123261005 -0.10771335 0.18799041 0.007846951 -0.14688504 -0.032447293
-0.063578114 -0.14885929 -0.16640095 -0.22151995 -0.29866183 -0.12372557 -0.188014 -0.044635992
0.012811873 -0.05464111 -0.17115207 -0.033797454 -0.051733337 -0.18008327 -0.032931834 0.1578549
-0.13194913 0.12704346 0.23456942 0.12869596 -0.10825569 -0.21160303 0.19025919 -0.038800795
0.0919303 0.055377573 -0.37066668 -0.009244926 0.28248242 0.053094402 -0.15856098 -0.041919373
0.014273757 0.12776484 0.28702706 0.30389258 -0.115096636 0.07620352 -0.123131305 -0.16367333
00000000: b633 9f3d 7ca7 0abe 0983 89bd 08fe d83c
00000010: 5e9e 863e 4ffe 4ebe ab2d 113e 8554 d3bd
00000020: b60c 41be 2624 6f3e 0344 263d 2191 3f3e
00000030: ab97 ef3d ed03 2bbe 4d87 d8bd dc15 afbd
00000040: 8380 96be b5f2 15be 4470 fcbd d198 dcbd
00000050: 8f80 403e 7f90 003c 0869 16be 74e7 04bd
00000060: 3e35 82bd 926e 18be 0365 2abe 20d6 62be
00000070: 34ea 98be d563 fdbd be86 40be 3bd4 36bd
00000080: e4e8 513c 5bcf 5fbd 7d42 2fbe 336f 0abd
00000090: 56e6 53bd c067 38be 88e3 06bd b7a4 213e
000000a0: ac1d 07be ae17 023e f732 703e e0c8 033e
000000b0: 29b5 ddbd 77ae 58be 4ed3 423e 95ed 1ebd
000000c0: f445 bc3d 98d3 623d 06c8 bdbe 0878 17bc
000000d0: 89a1 903e 8479 593d cf5d 22be a6b3 2bbd
000000e0: 7adc 693c c9d4 023e 36f5 923e cf97 9b3e
000000f0: c9b7 ebbd 9710 9c3d 442c fcbd fb99 27be

net.3.weight f4 [32, 64]
-0.1093756 0.06509304 -0.080804124 -0.11992234 -0.0056187497 -0.19259745 0.044338107 -0.041604016
0.0924327 0.19091435 -0.21227665 0.14121538 -0.18549307 -0.18001853 0.102270186 -0.07887356
0.027044568 0.07344619 -0.057604045 0.021852264 0.0744992 0.027387137 -0.23106124 -0.109760545
-0.18278494 0.00902576 0.038275283 0.022980282 0.006136597 0.09203737 0.037652608 0.025550034
0.032706898 -0.1464802 -0.03635685 -0.15120174 0.10917459 -0.11439304 -0.13397102 -0.08881177
-0.19500904 -0.04785062 -0.052300148 0.02198742 0.03649374 -0.19079794 0.024277546 -0.050565835
-0.009010993 -0.0012319284 -0.12520021 0.042807326 -0.018805103 -0.03313246 0.060044885 -0.02697795
-0.0067820777 -0.07588155 0.11513931 0.0761211 -0.124807894 0.0677357 -0.31377473 0.02725683
0.0018352106 0.1049305 -0.20411283 -0.051927645 0.09760417 0.16699623 0.0027561835 -0.05263503
0.088769965 -0.0555189 -0.020135878 -0.031243805 -0.000272637 -0.13131022 0.09948376 -0.033436272
-0.024711695 0.035238724 -0.09067093 -0.13998197 0.009656846 -0.054447297 -0.083708785 -0.02246012
-0.013043836 0.075624675 0.048293687 0.17552383 0.1453203 -0.03245539 -0.158175 0.056207247
0.120451085 -0.13050848 0.037136596 -0.05632527 -0.034065112 -0.11515288 -0.06415988 0.0161311
-0.23745267 -0.11094803 -0.13005708 0.05917168 0.08258785 0.024793446 0.06922731 0.009003667
-0.047264047 0.08883372 -0.04260323 -0.12995984 0.03594602 0.09209034 -0.053457826 -0.010539352
-0.028807279 0.028778661 0.13545604 0.14472203 -0.11788386 0.121234305 -0.119157374 -0.019598665
0.027471751 0.14754778 -0.058531594 -0.1306741 -0.084790565 -0.16736959 0.010217865 -0.054835357
0.17537606 0.15873793 -0.21662979 0.12405624 -0.14641167 -0.19188184 0.12304435 -0.050726414
-0.2228917 -0.06395744 0.019809943 0.046340223 0.037625663 0.11466642 -0.17173108 -0.024012318
-0.16212736 -0.081375346 0.037015647 0.18465336 -0.06560697 0.052395616 -0.15579988 0.08370741
0.12276067 -0.0563274 0.032361947 -0.032619324 -0.045367274 -0.016996467 -0.1956103 0.0038893786
0.00048146653 -0.037163917 -0.07426812 0.02938486 0.047894645 -0.11502329 0.06543427 0.011688485
-0.09319726 -0.091988206 -0.1808159 0.13155484 -0.09736042 -0.05335412 -0.018692674 0.055995673
0.07597484 -0.07010775 0.15401822 0.047916614 -0.1611095 -0.075578794 -0.24843192 0.1417935
0.1074345 0.13070017 0.06344126 -0.106115706 -0.05211813 -0.108132705 -0.17106673 -0.13320577
-0.08854764 -0.11590608 -0.008497755 -0.030606847 -0.10640218 0.0038958942 -0.019860592 -0.072252855
-0.015760686 0.096319675 0.061968792 -0.04640963 -0.019902488 -0.08139948 -0.008734444 0.13762254
0.009193754 -0.08474817 -0.11537492 -0.011677801 -0.17279638 -0.06309466 0.11156217 -0.11042339
0.036615927 0.10248015 0.047098625 -0.0903337 -0.15795584 -0.15227388 -0.08901728 0.0058159195
-0.025526581 0.014752257 0.15555656 0.071627796 0.012641186 -0.10379004 0.054917227 0.16066185
0.04659839 -0.038686827 -0.24707513 -0.01784298 0.116619036 0.09730945 0.08204281 -0.07074238
-0.046495687 0.07641017 0.022721427 0.04209538 0.1750548 0.15651512 -0.031563185 -0.0886289
00000000: 5100 e0bd 804f 853d a27c a5bd d899 f5bd
00000010: 7d1d b8bb 4438 45be e09b 353d f968 2abd
00000020: 5b4d bd3d 0d7f 433e 0d5f 59be c49a 103e
00000030: e5f1 3dbe c756 38be 0873 d13d 7688 a1bd
00000040: 928c dd3c f56a 963d 38f2 6bbd 8503 b33c
00000050: 0993 983d fd5a e03c 519b 6cbe 23ca e0bd
00000060: fa2b 3bbe c8e0 133c 8bc6 1c3d 2541 bc3c
00000070: 8215 c93b 177e bc3d 9f39 1a3d 4e4e d13c
00000080: abf7 053d e8fe 15be ecea 14bd a1d4 1abe
00000090: ed96 df3d e646 eabd b32f 09be f2e2 b5bd
000000a0: 73b0 47be 03ff 43bd ae38 56bd f61e b43c
000000b0: 767a 153d 8960 43be b4e1 c63c 1f1e 4fbd
000000c0: d8a2 13bc a878 a1ba 7c34 00be bc56 2f3d
000000d0: 290d 9abc e7b5 07bd a0f1 753d dd00 ddbc
000000e0: 313c debb c967 9bbd 29ce eb3d 61e5 9b3d
000000f0: 489b ffbd 04b9 8a3d 15a7 a0be b749 df3c
00000100: 738b f03a cde5 d63d f402 51be 15b2 54bd
00000110: b2e4 c73d 0f01 2b3e 16a1 343b d497 57bd
00000120: 07cd b53d c967 63bd fff3 a4bc 02f3 ffbc
00000130: b8f0 8eb9 3076 06be 24be cb3d 79f4 08bd
00000140: 2e70 cabc 7b56 103d aeb1 b9bd 6f57 0fbe
00000150: bf37 1e3c 2104 5fbd 836f abbd 49fe b7bc
00000160: d0b5 55bc 1ce1 9a3d 9acf 453d 85bc 333e
00000170: d8ce 143e f1ef 04bd a1f8 21be 9239 663d
00000180: 0faf f63d 04a4 05be 8b1c 183d 54b5 66bd
00000190: dc87 0bbd 46d5 ebbd 4166 83bd 5e25 843c
000001a0: cb26 73be b938 e3bd af2d 05be 015e 723d
000001b0: d223 a93d a01b cb3c 0cc7 8d3d 1e84 133c
000001c0: f297 41bd 74ee b53d b980 2ebd 3114 05be
000001d0: 223c 133d dc99 bc3d 98f6 5abd 3fad 2cbc
000001e0: 3efd ebbc 3ac1 eb3c fdb4 0a3e 0332 143e
000001f0: 186d f1bd b149 f83d c808 f4bd 618d a0bc
00000200: 700c e13c c416 173e d3be 6fbd 6ecf 05be
00000210: ada6 adbd ef62 2bbe d568 273c 0a9b 60bd
00000220: c895 333e 328c 223e 33d4 5dbe 3311 fe3d
00000230: f1ec 15be ac7c 44be adfe fb3d 80c6 4fbd
00000240: b93d 64be 1efc 82bd 7648 a23c 3fcf 3d3d
00000250: 5e1d 1a3d 3ad6 ea3d 46da 2fbe 7bb5 c4bc
00000260: b704 26be 1ea8 a6bd b89d 173d c515 3d3e
00000270: f25c 86bd c99c 563d 018a 1fbe ca6e ab3d
00000280: f269 fb3d 8fb7 66bd f68d 043d d79b 05bd
00000290: 09d3 39bd 2d3c 8bbc 114e 48be f2e4 7e3b
000002a0: 586d fc39 3139 18bd e219 98bd 85b8 f03c
000002b0: 2d2d 443d 5591 ebbd 6702 863d 0f81 3f3c
000002c0: 34de bebd 5064 bcbd ce27 39be 50b6 063e
000002d0: e664 c7bd da89 5abd 6121 99bc b85b 653d
000002e0: b298 9b3d a794 8fbd f4b6 1d3e 3644 443d
000002f0: e4f9 24be 0ec9 9abd f064 7ebe 5132 113e
00000300: 9e06 dc3d 44d6 053e 7eed 813d 3153 d9bd
00000310: d279 55bd ae74 ddbd 1e2c 2fbe 1867 08be
00000320: 7758 b5bd 2b60 edbd 2b3a 0bbc 36bb fabc
00000330: 63e9 d9bd 4252 7f3b aeb2 a2bc 4ef9 93bd
00000340: 8e1c 81bc 4043 c53d fdd2 7d3d 0618 3ebd
00000350: 8b0a a3bc c5b4 a6bd ea1a 0fbc ecec 0c3e
00000360: 66a1 163c 7390 adbd b049 ecbd 3f54 3fbc
00000370: 89f1 30be c637 81bd b57a e43d a925 e2bd
00000380: 95fa 153d 1de1 d13d 7dea 403d e000 b9bd
00000390: 2dbf 21be afed 1bbe b14e b6bd 7893 be3b
000003a0: 1f1d d1bc 73b3 713c 384a 1f3e 98b1 923d
000003b0: fa1c 4f3c df8f d4bd e3f0 603d 8a84 243e
000003c0: f4dd 3e3d 1476 1ebd 4301 7dbe 712b 92bc
000003d0: f6d5 ee3d 2d4a c73d 1006 a83d 62e1 90bd
000003e0: 4372 3ebd ef7c 9c3d 4922 ba3c 356c 2c3d
000003f0: 9141 333e 8045 203e 6648 01bd 1283 b5bd

net.3.bias f4 [32]
0.19954528 -0.07779745 0.08895435 0.07133311 0.005146113 -0.0763133 0.06853704 0.21994576
0.1257566 -0.06239578 0.017815731 0.018268546 -0.024607329 0.17906378 -0.022751441 0.053124826
-0.078861795 -0.085399136 -0.063056946 0.05584104 0.11809741 0.16580981 0.043886762 -0.13151737
0.067294694 0.049723767 0.18688414 0.19404592 -0.08952475 0.035285845 -0.020027468 0.015274393
00000000: 9955 4c3e 4554 9fbd b32d b63d 1817 923d
00000010: baa0 a83b 264a 9cbd 265d 8c3d 7639 613e
00000020: 57c6 003e b892 7fbd 4cf2 913c eba7 953c
00000030: 4f95 c9bc 7f5c 373e 3b61 babc 6b99 593d
00000040: 4b82 a1bd bee5 aebd 0024 81bd 93b9 643d
00000050: 0edd f13d 0cca 293e 9bc2 333d 7dac 06be
00000060: cdd1 893d 26ab 4b3d 8e5e 3f3e f9b3 463e
00000070: c158 b7bd e487 103d a510 a4bc 7341 7a3c

net.6.weight f4 [2, 32]
-0.16172794 -0.043888964 -0.16228712 -0.029620074 -0.17985114 0.14492679 0.16070637 0.013766673
-0.050296213 0.2531727 0.050773103 -0.23336707 0.108733654 -0.09734353 0.15993403 -0.22437029
0.36650798 0.24944918 0.2821058 0.24042894 0.009627659 -0.1828895 -0.20359531 0.2088127
0.26350653 -0.2976152 -0.19684929 -0.1983 0.25571242 -0.057600968 0.16545464 0.06188686
0.36106533 0.26916867 0.27596605 0.2711449 0.07827637 -0.35943118 -0.24227172 0.21728446
0.1645245 -0.24546047 -0.29884082 0.20573284 -0.24577796 0.22743917 -0.1432907 0.17010276
-0.088168226 -0.29242247 -0.23287663 -0.097822405 0.18052933 0.033176765 0.25379056 -0.07451884
-0.079974785 0.052059285 -0.03381628 0.23155746 -0.1978693 0.2850335 -0.12547597 -0.20972328
00000000: 029c 25be eac4 33bd 982e 26be cca5 f2bc
00000010: e62a 38be b067 143e 3690 243e 9d8d 613c
00000020: 6703 4ebd da9f 813e 75f7 4f3d c7f7 6ebe
00000030: c0af de3d 0b5c c7bd bfc5 233e 53c1 65be
00000040: efa6 bb3e 9b6f 7f3e 2c70 903e 0133 763e
00000050: 54bd 1d3c 6347 3bbe 4a7b 50be ffd2 553e
00000060: 54ea 863e 0561 98be dc92 49be 280f 4bbe
00000070: bdec 823e feee 6bbd f16c 293e 137d 7d3d
00000080: 8edd b83e 7ad0 893e 6c4b 8d3e 81d3 8a3e
00000090: 5d4f a03d 5d07 b8be 1416 78be d17f 5e3e
000000a0: 1c79 283e fd59 7bbe aa01 99be a1ab 523e
000000b0: 38ad 7bbe d0e5 683e ccba 12be 6b2f 2e3e
000000c0: 8b91 b4bd 66b8 95be 3677 6ebe 1d57 c8bd
000000d0: aedc 383e 5ce4 073d d6f0 813e 559d 98bd
000000e0: d2c9 a3bd 1e3c 553d f182 0abd 661d 6d3e
000000f0: 409e 4abe e9ef 913e c67c 00be b3c1 56be

net.6.bias f4 [2]
0.04246333 0.054772142
00000000: 07ee 2d3d c158 603d
