source/nn_model.pth (torch, 15329 bytes, 6 tensors)

layers.0.weight f4 [64, 13]
-0.25709984 -0.06673829 0.02043462 0.34199876 0.042401362 -0.26492667 0.08079081 -0.15837464
0.46927837 -0.23555274 -0.26605266 0.28649065 -0.128675 0.33813047 0.10367625 0.23337698
0.22200441 0.12873112 0.3208957 -0.08145493 0.12528907 0.15230897 -0.015819216 -0.008138447
-0.059012186 -0.09198294 0.48858753 -0.20137008 -0.18210065 -0.04627159 -0.02419626 -0.04124498
0.009280259 0.107076876 -0.06170404 -0.12651642 -0.18616386 -0.00065627776 0.19399093 0.07614534
0.16805662 0.023810882 0.13178003 0.37971246 0.18393964 -0.11540339 0.14682978 0.16728456
0.13703765 -0.1611861 -0.19156623 0.059800893 -0.019948905 0.053291105 -0.15993702 0.18168761
-0.008988445 0.39608374 -0.10604629 0.2539243 -0.37227222 0.30080107 -0.057233572 -0.116803676
-0.11375146 0.53296244 -0.011865966 0.3377485 -0.09779356 0.08818568 -0.048752803 0.205367
0.04569501 0.18690707 0.0028282942 0.119113654 0.07726447 -0.0014046896 0.38077915 -0.003775722
0.14231643 0.064602226 0.13151562 0.11330587 0.09641942 -0.191607 0.19314107 0.2265095
0.22203255 -0.027467646 -0.1324953 0.17695245 -0.29325402 0.06088108 0.07060419 -0.07356205
0.06033714 -0.100011945 -0.14340605 0.41532835 0.31058204 -0.07408465 0.25972265 -0.0632155
0.10128624 -0.015837964 0.048729926 0.21797222 0.0063849958 0.055866003 0.26628253 -0.031457614
0.17718588 -0.21300368 0.20174181 0.44817117 -0.03447249 0.23211353 0.007823962 -0.27888492
-0.12266221 0.32763538 -0.013607811 -0.051997084 -0.051000085 -0.05364322 -0.13498424 0.31806085
-0.06627788 0.3339321 0.32134438 -0.17568891 0.109791726 0.024267465 -0.11859639 -0.12699082
0.039414052 -0.14639546 -0.0030803657 0.0708848 -0.44830054 0.087597854 -0.024653198 -0.5038884
-0.12323322 -0.07979375 -0.050833322 -0.035998918 -0.23583247 -0.2684416 -0.028198138 0.024654008
0.17701332 -0.17770012 0.24254902 -0.084016204 0.21255273 0.16556013 0.16848534 0.029056918
0.13354747 0.21206297 -0.017162584 0.07913706 0.17541608 0.076950066 -0.15865721 0.19245262
0.18057859 0.1738982 0.04744987 -0.3466216 -0.15340365 -0.19287163 0.17232224 -0.29000786
0.0052864966 -0.11858774 -0.30952018 -0.041142583 0.21610284 -0.23913841 -0.62924916 0.11091664
-0.2577445 0.06924468 -0.16994157 0.08878134 -0.098339245 0.23568834 -0.3467325 0.17755274
-0.2556221 0.17601715 -0.21843986 -0.50129867 0.12600139 -0.24315032 0.22154815 -0.20585895
-0.018004833 -0.02941883 0.10841909 0.02342509 0.04452062 -0.0285767 0.054135922 -0.03830718
0.3311121 0.119871326 0.0070678266 0.21554027 -0.14109969 -0.02506514 -0.122251965 0.007886447
0.114570975 0.24577777 -0.019095624 -0.02100598 -0.20703594 -0.22234318 -0.2038302 -0.019084133
0.067428656 -0.2353723 0.14638962 -0.4221766 0.11749497 -0.12599061 -0.26270443 0.009015592
-0.23082988 -0.14710411 -0.5788459 -0.054584842 -0.14747865 -0.31881586 0.000986116 -0.09234655
-0.0065930695 -0.082687445 -0.17417376 0.11705532 0.0005764236 -0.020783247 -0.22096753 -0.36181712
-0.062880084 -0.24375969 0.03706687 0.12010182 -0.014808977 -0.27661753 -0.041096874 -0.14584354
00000000: 97a2 83be 16ae 88bd 8166 a73c 761a af3e
00000010: 0dad 2d3d 78a4 87be a775 a53d f62c 22be
00000020: 4145 f03e bd34 71be 0e38 88be e7ae 923e
00000030: 61c3 03be 701f ad3e 3754 d43d 60fa 6e3e
00000040: 2055 633e 17d2 033e 714c a43e d8d1 a6bd
00000050: c74b 003e e2f6 1b3e 4d97 81bc 1f57 05bc
00000060: c3b6 71bd 8d61 bcbd 2528 fa3e f533 4ebe
00000070: 9878 3abe 4787 3dbd 3c37 c6bc 7ff0 28bd
00000080: 3a0c 183c 1f4b db3d 60bd 7cbd 858d 01be
00000090: bda1 3ebe 0e0a 2cba 8fa5 463e 17f2 9b3d
000000a0: 0917 2c3e 0a0f c33c 58f1 063e ac69 c23e
000000b0: ac5a 3c3e 9d58 ecbd 8c5a 163e a54c 2b3e
000000c0: 9953 0c3e f80d 25be f029 44be c8f1 743d
000000d0: e36b a3bc c647 5a3d 88c6 23be 510c 3a3e
000000e0: 4544 13bc 7dcb ca3e cc2e d9bd 5e02 823e
000000f0: 779a bebe 9902 9a3e c06d 6abd c436 efbd
00000100: 87f6 e8bd 3a70 083f 7869 42bc 5fed ac3e
00000110: fd47 c8bd b29a b43d 05b1 47bd ba4b 523e
00000120: b12a 3b3d 9164 3f3e e75a 393b dcf1 f33d
00000130: d63c 9e3d 901d b8ba 7cf5 c23e 1b72 77bb
00000140: 66bb 113e 2c4e 843d 08ac 063e e80c e83d
00000150: 8b77 c53d a034 44be c6c6 453e 1bf2 673e
00000160: 805c 633e d403 e1bc d9ac 07be 0633 353e
00000170: 6425 96be 705e 793d ee98 903d b3a7 96bd
00000180: 1424 773d 10d3 ccbd 09d9 12be eba5 d43e
00000190: 9c04 9f3e b1b9 97bd 5efa 843e 2177 81bd
000001a0: 296f cf3d 9ebe 81bc 0899 473d 1c34 5f3e
000001b0: 3a39 d13b c0d3 643d 2f56 883e b3d9 00bd
000001c0: 3770 353e a31d 5abe 6895 4e3e b176 e53e
000001d0: 0733 0dbd 2baf 6d3e 1330 003c 01ca 8ebe
000001e0: 5336 fbbd d3bf a73e 4cf3 5ebc e5fa 54bd
000001f0: 77e5 50bd feb8 5bbd 4f39 0abe dfd8 a23e
00000200: b2bc 87bd 26f9 aa3e 4087 a43e cbe7 33be
00000210: 7cda e03d 90cc c63c aae2 f2bd e209 02be
00000220: a170 213d b1e8 15be f6df 49bb 0d2c 913d
00000230: a687 e5be 8166 b33d 81f5 c9bc d5fe 00bf
00000240: b361 fcbd e86a a3bd 9a36 50bd 9a73 13bd
00000250: 117e 71be 2d71 89be c8ff e6bc 34f7 c93c
00000260: fb42 353e 05f7 35be c55e 783e b010 acbd
00000270: 6ca7 593e 9888 293e 6c87 2c3e c608 ee3c
00000280: abc0 083e 0927 593e 8c98 8cbc 9c12 a23d
00000290: 46a0 333e ff97 9d3d 0977 22be 4d12 453e
000002a0: 98e9 383e 5f12 323e cb5a 423d 6378 b1be
000002b0: d915 1dbe 2480 45be 3e75 303e e97b 94be
000002c0: 593a ad3b 21de f2bd 6e79 9ebe 2085 28bd
000002d0: 104a 5d3e b3e0 74be 7916 21bf 4328 e33d
000002e0: 16f7 83be 28d0 8d3d 2a05 2ebe fed2 b53d
000002f0: 1666 c9bd 4958 713e ec86 b1be 63d0 353e
00000300: e6e0 82be d73d 343e b3ae 5fbe 1c55 00bf
00000310: 8206 013e 66fc 78be 85dd 623e b0cc 52be
00000320: df7e 93bc c2ff f0bc d40a de3d f9e5 bf3c
00000330: 415b 363d af19 eabc a1bd 5d3d fde7 1cbd
00000340: 8687 a93e 197f f53d 3a99 e73b 97b6 5c3e
00000350: 707c 10be 6955 cdbc 3d5f fabd 2836 013c
00000360: 30a4 ea3d 2bad 7b3e 6d6e 9cbc bc14 acbc
00000370: 3b01 54be eead 63be ddb8 50be 5456 9cbc
00000380: 0918 8a3d 7005 71be 29e7 153e 8827 d8be
00000390: 34a1 f03d af03 01be 3281 86be 22b6 133c
000003a0: ab5e 6cbe 76a2 16be 3f2f 14bf 5b94 5fbd
000003b0: a504 17be d53b a3be 9040 813a 3020 bdbd
000003c0: ad0a d8bb 0958 a9bd 9b5a 32be b3ba ef3d
000003d0: 221b 173a a141 aabc 5045 62be 1840 b9be
000003e0: 46c7 80bd 249c 79be 6ed3 173d f1f7 f53d
000003f0: 5aa1 72bc d0a0 8dbe 3255 28bd 0258 15be

layers.0.bias f4 [64]
-0.12001799 0.023861505 0.039630953 0.020845272 -0.5807364 0.34916496 -0.009509873 -0.09189335
-0.15303142 -0.13242425 0.08595709 -0.06762651 -0.013797705 -0.34402454 -0.064331226 -0.38529128
0.07611177 0.10409789 -0.3169138 -0.23566306 -0.2686156 -0.3824144 -0.09431489 0.049772844
0.04190898 -0.123655364 0.22705874 -0.16050972 -0.48633623 0.024658998 -0.008634414 -0.06502547
-0.16358401 -0.07046383 -0.38255107 -0.12780423 -0.28169408 -0.07651982 -0.10182024 -0.25096625
-0.26453677 -0.043828122 -0.4037283 0.22716951 -0.3343924 -0.047913663 -0.14548613 -0.36989695
0.118170336 0.02374166 -0.035136465 -0.00068484823 -0.3821753 -0.13150457 0.04564207 -0.30183282
-0.38435233 -0.03614634 0.02974099 -0.17748407 -0.3287635 -0.10816374 -0.15414749 -0.20089059
00000000: fecb f5bd 3479 c33c 1154 223d b4c3 aa3c
00000010: 24ab 14bf c0c5 b23e 4ccf 1bbc 9532 bcbd
00000020: 45b4 1cbe 399a 07be 450a b03d c57f 8abd
00000030: c50f 62bc fc23 b0be 17c0 83bd e644 c5be
00000040: 7de0 9b3d 4631 d53d 8742 a2be a851 71be
00000050: fc87 89be d2cb c3be 2a28 c1bd 9cde 4b3d
00000060: c0a8 2b3d 063f fdbd 1682 683e a95c 24be
00000070: 1001 f9be ab01 ca3c 5b77 0dbc 132c 85bd
00000080: 9182 27be 574f 90bd bcdd c3be 1ddf 02be
00000090: 353a 90be 6cb6 9cbd 2187 d0bd a67e 80be
000000a0: 5d71 87be 1e85 33bd 7ab5 cebe 209f 683e
000000b0: 7b35 abbe 1e41 44bd 51fa 14be 2263 bdbe
000000c0: 4a03 f23d df7d c23c 41eb 0fbd 6387 33ba
000000d0: 7bac c3be 22a9 06be 2ef3 3a3d d589 9abe
000000e0: d4c9 c4be 2f0e 14bd 60a3 f33c 62be 35be
000000f0: b153 a8be f384 ddbd d7d8 1dbe 43b6 4dbe

layers.3.weight f4 [32, 64]
0.035151992 0.06525468 0.06260762 0.17418088 0.36021128 0.009341682 0.11580292 -0.0051639695
0.20193277 -0.08406899 -0.11374789 -0.017215157 0.06155435 0.0060621165 0.11741598 -0.35910156
0.06269552 0.07071614 -0.27180436 0.005848498 -0.08917501 0.24595927 -0.1805166 0.15632242
-0.0645319 0.024928676 0.109835476 -0.1067921 -0.04975799 -0.00303433 0.0972252 0.23265645
-0.113031775 0.11568673 0.047252387 -0.124538966 0.03237851 0.12907435 0.016311174 -0.29527634
0.043614864 0.18251656 -0.0482922 0.1510163 -0.2412388 -0.1940793 0.11644038 -0.19816177
-0.016616127 -0.08006112 -0.16249558 0.023387875 -0.5381475 -0.115409285 -0.1332577 -0.07343522
0.26501614 -0.013265334 0.06066986 0.16359447 0.23000468 0.19630075 -0.039419033 0.08162904
0.05622345 -0.01920554 0.08784544 -0.015276448 0.08522876 -0.27721685 -0.19719781 -0.12341689
0.08931453 0.16644196 -0.079384044 0.019729836 0.0806628 -0.17604375 0.21522689 0.3975842
0.004495475 0.13328719 0.072598584 0.13348971 -0.056728926 -0.121826515 -0.01590727 0.058847867
-0.009897042 -0.11022174 -0.0960359 0.04871775 -0.29775763 0.021745889 -0.038903438 -0.012544555
-0.04253977 -0.042664386 -0.0889074 0.059444435 -0.07700633 0.088629626 -0.188963 0.06121901
-0.0820381 0.114414096 -0.18183029 -0.20462507 0.27471 0.0066019436 0.089800395 0.17230627
0.074053854 -0.12014078 0.018602848 -0.1334102 0.28565532 0.1052215 0.021382615 0.14283526
0.019077891 -0.018525636 -0.14067651 -0.058065694 0.046275772 0.046533376 -0.21796472 0.10357592
-0.19474478 0.15630387 0.006537663 0.13219883 0.31100628 -0.2584893 -0.08723813 -0.15156157
-0.030577537 0.007547874 -0.14299102 -0.06838524 0.13191679 0.27259368 0.14053349 -0.13012753
0.08028543 0.028927853 0.057225607 0.07663246 -0.011246534 -0.03493563 0.004001974 0.12265555
-0.08081209 -0.026187811 -0.19524783 0.081374876 0.15380977 0.035512075 -0.027576094 0.01524336
0.1458789 -0.20634222 -0.1370527 -0.09493928 0.12631157 -0.104458354 -0.056360155 -0.057307173
0.25123766 -0.21210144 -0.12004382 -0.098994955 -0.15188056 -0.08750923 0.042779118 -0.15994515
0.027886903 -0.11591968 0.04115456 0.041287627 -0.21996397 -0.15941243 -0.006322625 -0.18169175
0.11657157 -0.06535772 -0.00921543 -0.059546676 0.23898567 -0.0036769395 0.10670504 0.05392144
0.061613247 -0.08994177 -0.038727693 0.037409954 0.35225746 0.067515366 0.23946095 0.11752783
0.16886431 -0.08571044 0.00012226326 0.076669686 0.043130532 -0.31931654 0.06663759 -0.37002358
0.13524708 0.005668908 -0.13400334 -0.15442358 -0.07210826 0.039549794 -0.08260158 0.07453576
-0.15005721 0.11313081 0.0870574 -0.066721 -0.22532351 0.018008968 0.12618916 0.055577904
-0.08077616 0.16689602 0.17753662 -0.015050491 0.17391142 0.12818453 0.0050730947 -0.2294415
0.07848118 0.06825259 0.0059668287 0.0556031 -0.2620027 0.12048325 0.18018498 -0.29386252
0.059200563 -0.03381812 -0.2445238 -0.12933439 -0.35038298 -0.11485654 -0.10501619 -0.046588164
0.13045695 0.06499418 -0.081122816 0.17891406 0.036720928 0.04987154 -0.08210502 0.12757413
00000000: 89fb 0f3d 3fa4 853d 6d38 803d 795c 323e
00000010: 9d6d b83e db0d 193c 152a ed3d 8436 a9bb
00000020: 77c7 4e3e 5d2c acbd a7f4 e8bd cd06 8dbc
00000030: 6a20 7c3d b8a4 c63b ca77 f03d 29dc b7be
00000040: 8266 803d a0d3 903d f129 8bbe c2a4 bf3b
00000050: 63a1 b6bd bfdc 7b3e 58d9 38be fc12 203e
00000060: 4d29 84bd 3937 cc3c 6cf1 e03d d1b5 dabd
00000070: 09cf 4bbd 9cdb 46bb 011e c73d 7e3d 6e3e
00000080: 347d e7bd 2aed ec3d b88b 413d 490e ffbd
00000090: 549f 043d 112c 043e 039f 853c 762e 97be
000000a0: 80a5 323d 9fe5 3a3e 0bce 45bd 04a4 1a3e
000000b0: 4e07 77be b9bc 46be 4b78 ee3d ebea 4abe
000000c0: 8b1e 88bc 16f7 a3bd 3e65 26be ee97 bf3c
000000d0: 09c4 09bf b45b ecbd b574 08be 3465 96bd
000000e0: 32b0 873e d856 59bc f680 783d 4f85 273e
000000f0: 5986 6b3e 1003 493e da75 21bd 202d a73d
00000100: 8f4a 663d f054 9dbc 4fe8 b33d 114a 7abc
00000110: 6b8c ae3d 5eef 8dbe 39ee 49be ffc1 fcbd
00000120: 89ea b63d c36f 2a3e 1a94 a2bd 77a0 a13c
00000130: 8a32 a53d d044 34be 7064 5c3e 2890 cb3e
00000140: c74e 933b 707c 083e 91ae 943d 87b1 083e
00000150: 975c 68bd 2e80 f9bd f74f 82bc 760a 713d
00000160: 3427 22bc f0bb e1bd 78ae c4bd 438c 473d
00000170: b073 98be 6f24 b23c 3659 1fbd ad87 4dbc
00000180: 2f3e 2ebd dac0 2ebd 1515 b6bd 027c 733d
00000190: 7fb5 9dbd 7383 b53d 847f 41be c9c0 7a3d
000001a0: 9703 a8bd f051 ea3d b831 3abe 3c89 51be
000001b0: caa6 8c3e 1e55 d83b 45e9 b73d 0e71 303e
000001c0: 8ca9 973d 5f0c f6bd 0065 983c af9c 08be
000001d0: 6a41 923e 5f7e d73d 982a af3c 6843 123e
000001e0: 3d49 9c3c 13c3 97bc 810d 10be 4bd6 6dbd
000001f0: aa8b 3d3d c899 3e3d 2532 5fbe 9d1f d43d
00000200: 2d6b 47be 1f0e 203e e439 d63b 215f 073e
00000210: 373c 9f3e b658 84be e8a9 b2bd f532 1bbe
00000220: be7d fabc 2854 f73b 3d6c 12be 900d 8cbd
00000230: 3215 073e 6691 8b3e 03e8 0f3e 2740 05be
00000240: b06c a43d 1bfa ec3c 6665 6a3d 7bf1 9c3d
00000250: 6243 38bc aa18 0fbd fe22 833b d532 fb3d
00000260: cf80 a5bd d287 d6bc 0cef 47be dfa7 a63d
00000270: 4f80 1d3e 1c75 113d 43e7 e1bc 49bf 793c
00000280: 4761 153e 604b 53be 8b57 0cbe 866f c2bd
00000290: d257 013e 43ee d5bd e8d9 66bd edba 6abd
000002a0: 39a2 803e 1f31 59be 89d9 f5bd debd cabd
000002b0: 9486 1bbe 0a38 b3bd 2839 2f3d a9c8 23be
000002c0: 1373 e43c 4c67 edbd af91 283d 371d 293d
000002d0: 3c3e 61be 033d 23be 062e cfbb 670d 3abe
000002e0: 13bd ee3d 45da 85bd 51fc 16bc 37e7 73bd
000002f0: a9b8 743e cff8 70bb 2c88 da3d badc 5c3d
00000300: 2c5e 7c3d 6433 b8bd eea0 1ebd 2e3b 193d
00000310: 175b b43e 7f45 8a3d 4035 753e 6eb2 f03d
00000320: c4ea 2c3e f588 afbd cb33 0039 ff04 9d3d
00000330: a4a9 303d 757d a3be 4a79 883d bb73 bdbe
00000340: 367e 0a3e 3fc2 b93b 2c38 09be 3721 1ebe
00000350: 7fad 93bd f7fe 213d 042b a9bd 34a6 983d
00000360: 99a8 19be 20b1 e73d 264b b23d 05a5 88bd
00000370: 35bb 66be 8b87 933c bb37 013e a8a5 633d
00000380: f96d a5bd cae6 2a3e 29cc 353e 5696 76bc
00000390: d615 323e ce42 033e 343c a63b b6f2 6abe
000003a0: beba a03d 04c8 8b3d 6385 c33b 14c0 633d
000003b0: 3825 86be ecbf f63d 6982 383e 2675 96be
000003c0: 4a7c 723d de84 0abd 7264 7abe 3c70 04be
000003d0: 6665 b3be e839 ebbd ba12 d7bd 3bd3 3ebd
000003e0: 8296 053e ab1b 853d b823 a6bd 3f35 373e
000003f0: af68 163d 1a46 4c3d ad26 a8bd cba2 023e

layers.3.bias f4 [32]
0.008961337 -0.098844394 -0.09338239 -0.031313572 -0.046865087 0.09013527 0.03095719 0.13958274
-0.080157824 -0.1554686 -0.15610078 -0.23540029 0.17286488 -0.09179253 0.079240404 -0.16160934
0.049085237 0.12486888 -0.06066456 -0.085342884 -0.14511886 0.031978518 0.06727497 0.058611766
0.1849559 -0.03432754 0.20326406 -0.05727533 0.011775337 0.13694324 -0.02816813 -0.051246453
00000000: 92d2 123c ee6e cabd 443f bfbd a942 00bd
00000010: 9bf5 3fbd d798 b83d ef99 fd3c c7ee 0e3e
00000020: c929 a4bd 2933 1fbe e2d8 1fbe c60c 71be
00000030: 7e03 313e b9fd bbbd cb48 a23d eb7c 25be
00000040: 9a0d 493d 41bb ff3d 677b 78bd 40c8 aebd
00000050: 0a9a 14be e8fb 023d 76c7 893d e412 703d
00000060: 1465 3d3e 099b 0cbd 7424 503e 8999 6abd
00000070: 58ed 403c d93a 0c3e dac0 e6bc cde7 51bd

layers.6.weight f4 [2, 32]
-0.026161198 0.43257022 -0.4042285 -0.124847226 -0.3216878 0.2818181 0.27307475 0.20486984
-0.28928483 0.3221202 0.25243756 0.3396045 -0.096970506 0.37894014 0.4019526 0.39519337
-0.26836982 0.15009417 0.4431165 0.20222117 0.38077202 0.35920778 -0.26048052 -0.33307448
0.33754265 0.5268667 -0.24661222 -0.29133916 -0.1762748 -0.35965416 0.11256933 0.31362197
0.3187449 -0.43667254 0.22102036 0.30983794 0.21504262 -0.26432365 -0.24150234 -0.2946242
0.05666316 -0.37279624 -0.3264126 -0.34222317 0.34595 -0.3539994 -0.18264547 -0.57021004
0.17736003 -0.39394757 -0.480038 -0.36847845 -0.41414386 -0.25329196 0.22131932 0.4196909
-0.3780263 -0.32586795 0.40065885 0.19957224 0.28869143 0.074905574 -0.23206322 -0.19369674
00000000: 0250 d6bc d879 dd3e 0af7 cebe e7af ffbd
00000010: 43b4 a4be 764a 903e 74d0 8b3e 66c9 513e
00000020: 241d 94be f0ec a43e 7f3f 813e a4e0 ad3e
00000030: 7998 c6bd 7104 c23e bbcc cd3e c956 ca3e
00000040: c567 89be 49b2 193e 2ae0 e23e 1113 4f3e
00000050: 8df4 c23e 15ea b73e b45d 85be bd88 aabe
00000060: 64d2 ac3e bce0 063f ea87 7cbe 682a 95be
00000070: 6281 34be 9724 b8be c08a e63d 0f93 a03e
00000080: 8832 a33e 8b93 dfbe 2953 623e 14a3 9e3e
00000090: 2234 5c3e 6e55 87be 644c 77be fcd8 96be
000000a0: a117 683d 26df bebe 8d1f a7be e037 afbe
000000b0: 5c20 b13e 693f b5be 6a07 3bbe 49f9 11bf
000000c0: de9d 353e 7fb3 c9be 8ac7 f5be 35a9 bcbe
000000d0: aa0a d4be 7caf 81be 88a1 623e bae1 d63e
000000e0: aa8c c1be 2ad8 a6be 2823 cd3e aa5c 4c3e
000000f0: 5dcf 933e 1868 993d fba1 6dbe 7058 46be

layers.6.bias f4 [2]
-0.018615704 0.13644832
00000000: f67f 98bc 1cb9 0b3e
